data/Model_outputs/Model_outputsConvLSTM_Exp1_2025-02-26.pth (torch, 602816 bytes, 3 tensors)

lstm_cell.conv.weight f4 [256, 65, 3, 3]
000000 6f 09 23 bd c8 ae 91 bd b0 7b aa bd 89 1c e0 bd
       -0.03980392 -0.07113415 -0.08324373 -0.10942943
000010 d5 8d c8 bd 83 c8 1c be db 11 67 bd d2 18 df bd
       -0.09792677 -0.15310864 -0.056413513 -0.10893406
000020 78 8c d9 bd 8b e4 3f bd 9a c5 4c bd e6 21 b7 bd
       -0.106224954 -0.046848815 -0.049993135 -0.089420125
000030 bc 0a 80 bd 22 44 f0 bc 63 e1 90 bd d2 db ba bd
       -0.062520474 -0.029329363 -0.07074239 -0.09123959
000040 fa 4a 15 bd bd 73 8e bd d0 b9 3f 3e 53 12 1b 3e
       -0.036448456 -0.06955669 0.18723226 0.15143709
000050 c8 31 12 3e 3f e5 04 3e c3 29 26 3e ff 2d ea 3d
       0.14276803 0.12978075 0.16226868 0.11434554
000060 4b 31 55 3e 4d c0 2a 3e d6 e6 24 3e 33 bf c4 3d
       0.20819585 0.1667492 0.16103682 0.09606781
000070 18 4e 8f 3d da 45 00 3e ca 3f 93 3d 2a ec 1f 3e
       0.06997317 0.12526646 0.07189901 0.15617433
000080 76 9b a4 3d 45 ef d7 3d 05 94 f5 3d 65 c7 01 3e
       0.08037464 0.10543684 0.11991123 0.12673719
000090 63 44 73 3d 14 af 18 3d 8f 67 cf 3d 71 4d 68 3d
       0.05939139 0.037276343 0.10127174 0.05671448
0000a0 04 cc 53 3d 69 95 87 3d 58 7c d5 3d 7a 88 9b 3c
       0.051708236 0.066202946 0.10424107 0.018985976
0000b0 d6 03 9f 3b 07 bb 59 3d 14 c6 b5 bc 08 81 b9 bb
       0.004852752 0.05315688 -0.022189178 -0.0056611337
0000c0 59 4e 10 3c 60 eb 08 3d 2a 87 1f 3d 25 bf 13 3c
       0.008807742 0.033427596 0.038947262 0.00901774
0000d0 4a 3f 4f bd c6 a1 af 39 d7 2a 46 3e 50 6b 5c 3e
       -0.050597467 0.00033499132 0.1935228 0.21525311
0000e0 c6 ad 49 3e c2 96 e7 3d 85 14 a2 3d 96 e7 cb 3d
       0.19695196 0.11308052 0.0791407 0.09956281
0000f0 4f da 9c 3d 08 72 95 3d c8 b9 af 3d 6c 8d 24 3d
       0.076588266 0.0729714 0.08580357 0.040173933
000100 ab c5 95 3d 40 1d b1 3d 52 93 8f 3d 36 d0 90 3d
       0.07313093 0.08648157 0.07010521 0.07070963
000110 bb 9d 3a 3d 5d 15 a3 3d 7e bf 4b 3d 33 29 26 3d
       0.04556058 0.07963059 0.049743168 0.040566634
000120 79 a3 cf 3d 0a 95 ac 3c ed c3 72 3d 95 92 88 3d
       0.10138602 0.021067161 0.05926888 0.06668583
000130 de 02 db ba 30 82 34 3d 9b 3e 9b 3d b1 9a 79 3d
       -0.0016709229 0.04406947 0.075803004 0.06093854
000140 4b 49 7c 3c b6 07 8c 3d 90 1a 3f 3d ab 2c ee bc
       0.015398334 0.06837408 0.04665619 -0.029074034
000150 34 40 85 3d 3c 79 7d 3d 14 01 e1 3c 59 f6 b5 3d
       0.065063864 0.061883196 0.027466334 0.08884878
000160 c4 02 e7 3c 21 f6 e1 3c 66 43 65 bd ff 60 51 bd
       0.028199561 0.027583184 -0.05597248 -0.051117893
000170 c8 75 d5 bd ae 67 c8 bd 01 20 a5 bd 83 90 33 bd
       -0.104228556 -0.097854 -0.08062745 -0.04383899
000180 b5 a5 d8 bc 5f e4 9f bd 20 bc 5c bd a5 aa 2f 3e
       -0.026446203 -0.0780723 -0.053890347 0.1715494
000190 b2 7f 09 3e fa 17 01 3e e2 d0 3f 3e 99 36 19 3e
       0.13427618 0.12606803 0.18732026 0.14962234
0001a0 af 45 20 3e 89 a2 42 3e af c0 4d 3e d5 a1 27 3e
       0.15651582 0.19007315 0.20093034 0.16370328
0001b0 7f 1f 23 bc 36 6a 14 3c 9b 87 f2 bb e9 b1 dd bc
       -0.00995624 0.009058526 -0.0074014193 -0.027062373
0001c0 bf a4 b9 3c fe 34 7c 3b b6 c3 24 bd 81 b0 fd 3c
       0.022661565 0.0038483734 -0.040225707 0.030967953
0001d0 d8 6f c3 bc 59 67 00 3e f5 c1 44 3d 1e cc a4 3d
       -0.023857042 0.12539424 0.048036534 0.08046745
0001e0 f6 7d 20 3e 2f 52 b2 3d 06 47 bb 3d 80 5e 1f 3e
       0.1567305 0.087070815 0.09144406 0.15563393
0001f0 e4 7b 69 3d c5 2a 0d 3e c6 0f 9e bc 45 81 89 3c
       0.057002917 0.13785847 -0.01929463 0.016785273
000200 1a a8 48 3b 1f 17 85 bc 27 e8 74 3b d2 ca 55 3d
       0.0030617774 -0.016246377 0.003736982 0.052195378
000210 21 f2 04 3d 8b 90 2e 3d c7 a4 ad 3c 69 49 ab 3c
       0.032457475 0.042618316 0.021196736 0.020909028
000220 05 6d 91 3d 97 35 4e 3d aa 73 b8 3d 76 c7 38 3d
       0.07100872 0.050344076 0.09006436 0.045112096
000230 1c 07 a5 3d 3b dc 32 3d ff ba a6 3d e2 1b c6 3c
       0.08057997 0.04366706 0.081411354 0.024183217
000240 54 38 c6 bb 97 d4 a3 3c 36 2c 15 3d ff 99 29 3c
       -0.0060491953 0.019998832 0.036419116 0.010351657
000250 db 76 10 bb 0a 57 0a 3d c7 ea 7d bb 14 f2 08 3d
       -0.00220435 0.033774413 -0.0038744675 0.03343399
000260 5c ae 10 bb d6 89 28 bc d7 b5 e6 bc dd 13 2c bd
       -0.0022076583 -0.010286769 -0.02816288 -0.04201113
000270 22 43 f4 3c 94 63 fa bc d0 04 6a bc 08 9c 1f bd
       0.029817168 -0.03056506 -0.014283374 -0.038967162
000280 02 98 cb bc dc fa de 3c 07 3c 7d 3d df 64 2d 3d
       -0.024852756 0.027219228 0.061824825 0.042332526
000290 40 50 98 3d 0e 45 f6 3c d3 e4 ba 3d 0b bb c8 3c
       0.074371815 0.030062225 0.09125676 0.024503252
0002a0 a0 c1 49 3d ea a0 8b 3d c1 c2 73 3d e7 59 26 3d
       0.04925692 0.06817801 0.059511904 0.04061308
0002b0 de c7 0f 3d 34 f9 88 bc d9 5e 5c 3d f3 bf 3a 3b
       0.035102718 -0.016720392 0.05380139 0.0028495758
0002c0 56 1d 1a 3d 9a 4c 1a 3c 70 43 de bb 30 e1 02 bd
       0.037625633 0.009417677 -0.0067829415 -0.031953037
0002d0 7b 88 6f bc a4 a9 89 3c 3c 0a 29 bb cc 73 72 3d
       -0.014619942 0.016804524 -0.0025793454 0.059192464
0002e0 6e 47 36 3d 4a 2d d8 3c ad de 95 3a cd c5 57 3d
       0.044501714 0.026388783 0.001143416 0.052678872
0002f0 cb 55 78 3d 20 e0 18 3e b3 62 2a 3e f7 7d e3 3d
       0.060628694 0.14929247 0.16639213 0.1110801
000300 4d 42 34 3e f6 f5 16 3e 73 3c e2 3d da 97 1c 3e
       0.17603417 0.14742264 0.11046686 0.15292302
000310 bb cf 0f 3e 28 2d 09 3e ea 1a 82 bd 5e dd 81 bd
       0.14044087 0.13396132 -0.0635279 -0.063410506
000320 05 20 13 bd 77 90 23 bd b4 ad 45 bd c3 95 1c 3a
       -0.035919208 -0.039932694 -0.04826136 0.0005973244
000330 89 d5 38 bd 1f d3 76 3b fb 1f 1b bd 36 a1 13 be
       -0.045125518 0.003766246 -0.037872296 -0.14416966
000340 c9 bb 09 bd 03 4b 23 bd 4e 50 a9 bd a8 b9 8c 3b
       -0.03362635 -0.03986646 -0.0826727 0.004294593
000350 53 03 db bc 01 03 5e bd 1e c2 df ba b6 74 46 3a
       -0.026734984 -0.054202083 -0.0017071401 0.0007570492
000360 0a 22 e6 3d 26 cd 7b 3d 97 65 13 3e 9e 10 f7 3d
       0.11236961 0.06147494 0.14394222 0.12063716
000370 57 fc c1 3d a9 12 13 3e 9c 41 13 3e a1 cc db 3d
       0.09471958 0.14362587 0.14380497 0.10732389
000380 27 e8 ff 3d d5 61 90 3d bc 9f 3d 3d de c7 a3 3d
       0.124954514 0.0704991 0.046294913 0.07997106
000390 64 da 83 3d 63 08 8f 3d dc c0 97 3d 7a 34 f9 3d
       0.06438139 0.069840215 0.07409832 0.12168212
0003a0 69 7e da 3d 07 92 d9 3d 6d 7a f0 bd 8a 7d 00 be
       0.10668642 0.10623556 -0.11742101 -0.1254789
0003b0 3a 0e f5 bd 4b 23 07 be 6b 3b ca bd 4d c0 23 be
       -0.11965604 -0.13197057 -0.09874614 -0.15991326
0003c0 85 aa fb bd aa 0d 01 be d8 4c e2 bd 62 f7 df 3d
       -0.122883834 -0.12602869 -0.11049813 0.109358564
0003d0 3b 3d bf 3d 0e 8e 23 3e 21 da 2b 3e d6 ac c7 3d
       0.09337851 0.15972158 0.16782428 0.09749763
0003e0 ee 96 32 3e 7a 70 ef 3d 3e 05 fc 3d 8a 43 38 3e
       0.17440388 0.11691375 0.12305687 0.17994514
0003f0 5b f7 ad 3b 53 37 91 3d 2b 9d bc 3d 90 92 6f 3d
       0.005309028 0.070906304 0.09209665 0.058489382

lstm_cell.conv.bias f4 [256]
000000 cc 0f 21 3c 77 05 4f 3e b6 a4 0f bb 2e 3b 41 3d
       0.009830426 0.20216928 -0.0021918244 0.04717558
000010 a7 92 b3 3d b4 82 a7 3e 0d dc 6b bc ce 69 64 3d
       0.08768206 0.32716906 -0.014395726 0.055764966
000020 1e b9 b0 3c 14 d8 17 bc 20 29 96 bb 9c cd d8 bc
       0.021572646 -0.009267826 -0.004582539 -0.02646523
000030 26 41 a3 3d 32 70 9c ba 0a ce 15 3b d6 a4 8e bd
       0.079714105 -0.0011935292 0.0022858405 -0.06965034
000040 c2 0f 2b bc 57 5f 64 bc 7c 99 a1 3e bd 89 0b bc
       -0.010440769 -0.013938746 0.31562412 -0.008516726
000050 90 82 0a bc f4 a2 aa bd 7d ae 85 3e 7a fe 0f bc
       -0.00845398 -0.08331862 0.26109686 -0.008788699
000060 f3 c4 7c 3d 6e d3 5e bd 33 bd 8d bc d3 f4 73 bd
       0.061711263 -0.054400854 -0.017302131 -0.059559654
000070 d9 fa ae 3d 09 2c ad bd fd e0 e9 bc 71 36 03 3e
       0.08543939 -0.08455665 -0.028549666 0.12813736
000080 42 0d 8d bc 7b 3c 94 3d 47 9f 2b 3d 43 69 7a bc
       -0.017218236 0.07238098 0.041899946 -0.015283885
000090 51 7f 30 bd 01 58 01 3e 3c d2 48 3c 79 93 86 bc
       -0.04309017 0.12631227 0.012257155 -0.016427742
0000a0 d6 b4 7f bb 09 29 37 bc 81 d1 47 bd 41 73 17 bd
       -0.0039017699 -0.011179217 -0.048783783 -0.03697515
0000b0 37 e5 8c bc c8 21 19 bc 6e 85 f6 3c ac 5e b8 bc
       -0.017199142 -0.009346433 0.030092921 -0.02250608
0000c0 6c b8 87 bd e6 5f ce 3d 07 07 89 3d b4 59 68 3d
       -0.066269726 0.10076885 0.066907935 0.056726173
0000d0 e7 8a 92 3e 61 3d 2d 3d b6 9c 0e 3c d2 36 07 bc
       0.286216 0.042294864 0.008704355 -0.008252816
0000e0 6c 9e 46 bd 0a 36 02 3d cf 4a b2 3c bc f0 25 bd
       -0.048490927 0.031789817 0.021764187 -0.040512785
0000f0 77 5f 94 3e fa 9c 14 3d b0 ce 1a bb 1b 7c 86 3e
       0.28979084 0.036282517 -0.002362173 0.2626656
000100 bf c6 2d 3d 25 bf fa bc 74 d6 e2 bd 5d 0a f3 bd
       0.042425867 -0.030608723 -0.1107606 -0.11867211
000110 b9 f6 c7 bd c2 95 f8 bd c7 2b d8 bd e7 99 26 bd
       -0.097638555 -0.12137939 -0.10555225 -0.040674116
000120 fa 48 a7 bc a1 d9 90 bc af bf 22 bd ee 92 bc bd
       -0.02042054 -0.017681899 -0.039733585 -0.09207712
000130 23 46 07 be de e7 f6 bc ea ff b3 3b 9f 90 b7 3c
       -0.13210349 -0.03013986 0.005493154 0.022407828
000140 66 be df 3d 47 90 87 bd ae 6e 0c bd 01 ae 90 bd
       0.109249875 -0.066193156 -0.03428524 -0.070644386
000150 78 a1 84 bd 9b 33 c7 3b be e6 32 3d f8 05 80 bb
       -0.0647611 0.00607915 0.043677084 -0.0039069615
000160 69 39 56 bd 5e 2b 8e bd 9f 39 81 bc dc 9f b4 bc
       -0.052300844 -0.069418654 -0.015774546 -0.022048883
000170 b3 22 b1 bd 23 6b 08 3c f9 5a 2a bd 39 f0 19 be
       -0.086491965 0.008326325 -0.041590665 -0.15033044
000180 a8 ad b3 bc 0a 63 55 bd 4b 91 bd 3b 2e 84 31 bd
       -0.021933392 -0.052096404 0.0057851425 -0.043338947
000190 66 f7 e6 bc 80 98 6a bd f9 81 48 bd c7 6f b8 bd
       -0.02819414 -0.05727434 -0.048952077 -0.09005695
0001a0 be ca eb bc ec 9b 53 bc 11 cb 0c 3d 09 c4 a8 bd
       -0.028783198 -0.012915593 0.034373347 -0.08240516
0001b0 a0 93 b5 3c 27 23 16 be ad 54 78 bd c6 51 81 bd
       0.02216512 -0.14661847 -0.060627628 -0.06314425
0001c0 f6 46 5c bb d1 10 09 be 69 1d 8b 3c 2a 54 37 bd
       -0.0033611632 -0.13385321 0.016981797 -0.044758
0001d0 30 ad 57 3d 38 ab 16 be 09 65 28 bd 65 e4 89 bc
       0.0526554 -0.14713752 -0.04111198 -0.01683254
0001e0 2f 43 b6 3c 35 5f b2 3b 7e 77 52 bd 18 fa 39 bd
       0.022248833 0.0054434785 -0.051383488 -0.045404524
0001f0 10 2a 32 bd 20 35 9b bc b3 cd 61 3d 3e 4b f6 bb
       -0.043497145 -0.01894623 0.05512781 -0.007516294
000200 31 24 82 3d 26 d4 d3 3c 6f 98 38 3d b8 0d 9b bc
       0.06354559 0.025857996 0.045067247 -0.01892744
000210 f3 ab 2f be a5 9e 81 bd 4f 27 ee bd 3a e3 6b bb
       -0.17155437 -0.06329087 -0.11628591 -0.0035993592
000220 c8 6f ef 3c a8 08 28 3d 0b 57 cb bd 2a ce b9 3c
       0.029228106 0.04102388 -0.099287115 0.022681314
000230 3f a9 24 bd a4 c8 1e bd 2a ad 45 3a 58 1b 0c 3d
       -0.04020047 -0.038765565 0.0007540757 0.034205765
000240 dc 47 30 3d 34 e6 20 ba 19 cb 0b bb 53 96 12 3d
       0.04303728 -0.00061378186 -0.0021330772 0.03578789
000250 a5 84 13 bd 5d 7c 2c 3d 60 f0 64 3c 3b b8 f4 bc
       -0.03601517 0.04211079 0.0139733255 -0.029873004
000260 f8 ad 47 3d d5 fc 9e bb b5 f0 e8 bc 16 de 03 3d
       0.048749894 -0.0048519173 -0.02843509 0.03219422
000270 2f b6 ff bc 2d 4a 2f 3d 4a b4 fa 3b e8 4b 82 3d
       -0.031214802 0.04279535 0.0076508867 0.06362134
000280 63 44 c2 bb e7 e1 3a bd 8e d1 25 bd 24 78 05 bd
       -0.0059285625 -0.045625594 -0.04048305 -0.03258528
000290 33 a9 13 3d 08 cd 3a bd ba 33 3b bd f3 57 11 bd
       0.036050033 -0.04560569 -0.045703627 -0.035484266
0002a0 22 59 33 3d f2 eb 49 bd 71 ab 5a bd d1 ea 91 bc
       0.043786176 -0.04929728 -0.053386156 -0.017812165
0002b0 49 df ef 3c c2 be a8 bd 06 cf c2 bc ab 9c 34 3d
       0.029281275 -0.08239509 -0.023780357 0.044094723
0002c0 25 72 60 bd 4a 0f 87 bd d6 1a 1f bd cf 68 02 be
       -0.054796357 -0.06594713 -0.038843952 -0.12735294
0002d0 45 81 cf bc 14 89 88 bd a7 d3 1c bd 58 03 da 3c
       -0.025330195 -0.066667706 -0.038287785 0.026612923
0002e0 25 be 83 bc 50 94 bb bd 9e 0c 45 bd ab 68 07 bd
       -0.016081879 -0.09159148 -0.048107736 -0.033058804
0002f0 73 58 a2 bc 02 29 f1 bd 27 c7 75 bd 19 61 5e bc
       -0.019817566 -0.117754 -0.06000438 -0.013572955
000300 eb 43 e3 3b bf 69 13 3e 21 44 8a 3d 60 87 05 3d
       0.0069355867 0.14395808 0.06751276 0.032599807
000310 b7 d0 98 3d 5a 1b cd 3e 21 58 16 3d ae 18 16 3d
       0.07461684 0.4005993 0.03670514 0.03664463
000320 78 d6 c9 bb be e4 07 3c a5 58 80 3c cb 3b fd 3b
       -0.0061596 0.0082942825 0.015667269 0.007728075
000330 e1 ae d8 3d 10 ac 9a 3c 0e d6 6e 3c 6c e6 5d bd
       0.105802305 0.018880874 0.014577402 -0.054174826
000340 c0 fd 2a 3c fa 46 a1 3b 66 1c 8e 3e f4 69 48 bd
       0.010436475 0.004921791 0.2775604 -0.04892917
000350 5c 1d 28 bd 8a 18 7b bd d1 44 6f 3e 5e 00 e8 3c
       -0.041043624 -0.0613027 0.23366095 0.028320488
000360 6c 1f 59 3c 3d 66 89 bd 2a 36 2e 3d 84 69 c1 bc
       0.01325212 -0.067089535 0.042532124 -0.023609884
000370 fb 07 08 3e ea ce 1a bd 80 ba 87 bd ee 3d d1 3d
       0.13284294 -0.037794985 -0.06627369 0.1021689
000380 44 29 91 bb 21 bc 9e 3d 14 92 57 3b 3a b3 71 bd
       -0.004429968 0.077507265 0.0032893466 -0.059008814
000390 1b ce 7a 3b b3 54 c6 3d e7 d9 6a 3c 88 aa 3f bd
       0.003826982 0.09684124 0.0143341785 -0.04679349
0003a0 bd 2b 83 bc c0 11 63 3c d1 f6 24 bd 51 22 3b bd
       -0.016012067 0.013859212 -0.040274445 -0.045687024
0003b0 4a b9 44 bd 1c 8b 06 3d 91 15 03 bd 34 ff f8 3c
       -0.048028268 0.03284751 -0.03200299 0.030395128
0003c0 45 83 fc bc 21 12 c2 3d 99 21 ae 3d fd e8 32 3d
       -0.030824313 0.09476114 0.08502502 0.043679226
0003d0 af 31 95 3e 2b 46 9a 3b ba d4 63 bd c9 39 1c bd
       0.29139468 0.0047080717 -0.055622794 -0.038141046
0003e0 d8 e4 d4 bc c9 24 34 3c 47 b7 b5 bc 58 e5 89 bd
       -0.025988027 0.010995098 -0.02218212 -0.06733197
0003f0 31 26 63 3e 75 1d 4a bc 3e 7d a1 3d e7 87 69 3e
       0.22182538 -0.012336125 0.07885216 0.22805749

conv_out.weight f4 [1, 64, 1, 1]
000000 41 86 40 bd c5 26 df 3b 91 cb 11 be c3 20 e6 3d
       -0.047003035 0.0068100416 -0.1423781 0.112367176
000010 1b e1 36 3c 97 85 ad bd bc 8b 8a 3d b7 16 8c 3d
       0.011162068 -0.08472746 0.067649335 0.0684027
000020 c7 d7 d0 bc 52 6d 8e 3d c0 4c 8e 3d 6f bc e7 bd
       -0.025493516 0.06954445 0.06948233 -0.11315238
000030 f0 9a c9 3c 50 ca 28 3d 95 cd b9 bd 40 4b 61 bd
       0.024610013 0.041208565 -0.09072415 -0.055003405
000040 fb ee 00 3c ad ad 2d 3d da f9 86 bc 34 d1 b5 bc
       0.007869477 0.04240196 -0.01647656 -0.022194482
000050 79 ea e2 bc 5a 09 bf bd 0b fa 20 bc 50 4b 3a bd
       -0.027699696 -0.093279555 -0.00982524 -0.04548198
000060 a8 5f 76 bd 3e a3 82 bd 46 8b aa bc 4a 10 55 bd
       -0.06014982 -0.06378792 -0.020818364 -0.052017488
000070 37 20 7a bc a9 cb 17 bc 38 86 bc 3d 0b 21 e4 3d
       -0.01526647 -0.009264865 0.09205288 0.11139115
000080 34 c1 aa bb cf 88 4d 3c e9 2f 73 bb 67 90 43 bd
       -0.00521102 0.012544825 -0.0037107414 -0.047745135
000090 07 ac 9d 3d d3 48 80 3c b8 2f 0b bd c3 ac 5a 3d
       0.07698827 0.015659725 -0.033981055 0.053387415
0000a0 79 80 92 3c f4 27 48 bd ee 27 cb 3c 8a 0e af 3d
       0.017883526 -0.048866227 0.024799313 0.08547695
0000b0 09 d6 9b 3d 39 8a 97 3c b4 3b 1b 3d 04 8e 44 3c
       0.07609183 0.018498527 0.037898734 0.01199675
0000c0 11 c7 a4 3d 9b ad df bd 56 0d 93 bd 5e 64 71 3d
       0.080457814 -0.109217845 -0.07180278 0.05893361
0000d0 ba 9a d3 bc 63 e7 39 bd 0c 16 c7 bd 33 f4 89 bc
       -0.025830615 -0.045386683 -0.09721002 -0.016840076
0000e0 73 a9 18 3c 3f 4c dc 3d 96 1d 7a 3c 7e 38 8a 3d
       0.009317744 0.1075673 0.015265843 0.06749056
0000f0 7a 51 0f bd 27 ee 4f 3d 6c b2 b1 3b 5b f4 33 bc
       -0.03498981 0.05076423 0.005422881 -0.010983552
