data/Model_outputs/Model_outputsConvLSTM_Exp1_2025-02-27.pth (torch, 602816 bytes, 3 tensors)

lstm_cell.conv.weight f4 [256, 65, 3, 3]
-0.9721901 -0.65289366 -1.0464011 -0.7910868 -0.27871236 -0.8968208 -1.0310453 -0.6781015
-1.0319958 -0.1265827 -0.046237823 0.044389635 -0.08239491 -0.017964588 0.11906803 -0.043877576
0.07351549 0.107789166 -0.22395721 -0.23237377 -0.1711288 -0.25996307 -0.2575149 -0.19055848
-0.2711929 -0.24170196 -0.14780425 -0.05757099 -0.014321332 0.12461587 -0.091197945 -0.0017447824
-0.056861795 -0.018175352 -0.025828876 -0.05086399 0.052445505 0.02730986 -0.07218989 0.071625106
0.021135725 0.06894277 0.08175413 0.08634873 0.15085176 -0.13429673 -0.018615354 0.06570639
0.061048932 0.10829254 0.093189105 0.086419806 0.13084479 0.056203477 -0.15061577 -0.079764746
-0.12776133 -0.22014931 -0.15613934 -0.117992364 -0.22641009 -0.20362005 -0.12637852 0.17243141
0.29002646 0.23328786 0.2063516 0.19640939 0.017876174 0.21300438 0.08500427 0.019591788
-0.050654277 0.11365172 0.06253312 0.0033696792 -0.0013474235 0.0062846746 0.050826825 0.019423166
0.06741921 0.053473838 0.06682736 0.07259056 0.00314681 0.057818644 0.083123386 -0.0061218096
0.09114918 0.12569852 -0.074040614 -0.07622327 -0.08259593 -0.12894334 -0.063345976 -0.08806529
-0.041877493 -0.054887492 -0.09733602 0.24487932 0.14599325 0.019744584 0.101345874 0.01173043
-0.055088867 0.047413416 -0.056746278 -0.048293594 -0.100390226 -0.094363905 -0.16423614 0.0024226168
-0.024385186 -0.104899555 -0.1348054 -0.16465165 -0.11828661 -0.10551296 -0.074531026 -0.06262707
-0.046199974 0.06338189 0.015761817 0.0071581556 0.010375919 0.010085159 -0.10736694 -0.15900825
-0.1137818 -0.12224424 -0.18341798 -0.27689022 0.050012875 -0.19197698 -0.06626407 -0.2380624
-0.23042431 -0.2313607 -0.18142994 -0.1672143 -0.113970056 -0.13542728 -0.051694274 -0.036660578
0.19564845 0.23564184 0.11451598 0.13988087 0.03399377 0.022034368 0.0021483137 -0.0033398035
-0.068337254 0.024661938 0.025122944 -0.04051074 0.05188745 0.02418319 -0.01984836 -0.0038433284
-0.030982722 -0.075447135 -0.12702785 -0.09918014 -0.08364058 -0.036793873 -0.08791871 0.0121245105
-0.0077417525 -0.003623646 0.11169571 0.05953608 -0.022314275 -0.22302748 0.03131257 -0.023069048
-0.21224251 0.00999705 -0.08127562 -0.12596737 -0.21550108 -0.13290806 -0.04038697 -0.084467016
-0.051833883 -0.017367097 -0.0418794 -0.01994444 0.02987045 0.08937196 0.032180622 0.0030391058
0.05351013 0.043795776 0.028951561 0.058267634 -0.016247887 -0.0067256256 0.034664467 -0.035962015
-0.0391301 -0.077197134 0.11625086 0.21861395 -0.073190846 0.15213756 0.002226892 0.20993212
0.04991823 -0.11939369 0.14483167 -0.07468935 -0.1670773 0.047255006 -0.15911394 -0.13813005
-0.15306702 -0.13508898 -0.14500913 0.0149222445 0.02177785 -0.010721278 0.014924698 0.036245912
-0.08556492 0.19910482 0.087833695 0.07377614 0.120496176 0.08684452 0.077807084 0.11596203
0.09175574 0.06832362 -0.3403891 -0.24561402 -0.23499675 -0.31082723 -0.21859078 -0.12509422
-0.25373822 -0.13312714 -0.11930168 0.15994513 0.12536685 0.12367963 0.06606061 0.12141284
0.18510036 -0.016596729 0.0923897 0.08021265 -0.20171055 -0.061648484 -0.07098198 -0.06400539
00000000: 73e1 78bf 0a24 27bf 79f0 85bf aa84 4abf
00000010: 63b3 8ebe 0c96 65bf 4bf9 83bf 0f98 2dbf
00000020: 7018 84bf e59e 01be df63 3dbd e8d1 353d
00000030: aabe a8bd 792a 93bc f0d9 f33d f9b8 33bd
00000040: 4a8f 963d 91c0 dc3d 0a55 65be 64f3 6dbe
00000050: 633c 2fbe e119 85be fed8 83be c321 43be
00000060: ccd9 8abe b880 77be ff59 17be 8fcf 6bbd
00000070: 05a4 6abc 9b36 ff3d fdc5 babd 2fb1 e4ba
00000080: eae7 68bd 7ae4 94bc 1497 d3bc c256 50bd
00000090: 19d1 563d edb8 df3c 4bd8 93bd 2fb0 923d
000000a0: d424 ad3c de31 8d3d b66e a73d 9ad7 b03d
000000b0: e278 1a3e 1585 09be 3a7f 98bc 1291 863d
000000c0: 720e 7a3d 7bc8 dd3d eed9 be3d defc b03d
000000d0: 2dfc 053e 9e35 663d 053b 1abe b35b a3bd
000000e0: ded3 02be d26e 61be fee2 1fbe fba5 f1bd
000000f0: 0cd8 67be c681 50be 5f69 01be dc91 303e
00000100: 597e 943e 03e3 6e3e d54d 533e 8b1f 493e
00000110: 0e71 923c d21d 5a3e b816 ae3d f57e a03c
00000120: dc7a 4fbd 3cc2 e83d 5d11 803d d6d5 5c3b
00000130: 089c b0ba acef cd3b ca2f 503d 551d 9f3c
00000140: 1513 8a3d 6207 5b3d c8dc 883d 5caa 943d
00000150: b63a 4e3b 3ed3 6c3d 983c aa3d 7699 c8bb
00000160: 6cac ba3d 1db7 003e 9ba2 97bd f21a 9cbd
00000170: 0e28 a9bd b909 04be 89bb 81bd 935b b4bd
00000180: bc87 2bbd b5d1 60bd 1b58 c7bd a5c1 7a3e
00000190: 417f 153e 65bf a13c 6d8e cf3d fd30 403c
000001a0: dda4 61bd 9234 423d c96e 68bd 81cf 45bd
000001b0: 6499 cdbd dd41 c1bd 852d 28be c4c4 1e3b
000001c0: 71c3 c7bc 94d5 d6bd 6d0a 0abe 719a 28be
000001d0: 4040 f2bd 2e17 d8bd b9a3 98bd 9f42 80bd
000001e0: 2f3c 3dbd 5dce 813d ed1e 813c f68e ea3b
000001f0: c2ff 293c 393c 253c 33e3 dbbd 0fd3 22be
00000200: 6f06 e9bd 305b fabd ecd1 3bbe 8ec4 8dbe
00000210: 4dda 4c3d 9d95 44be 75b5 87bd a1c6 73be
00000220: 5af4 6bbe d2e9 6cbe c5c8 39be 3a3a 2bbe
00000230: 2269 e9bd 73ad 0abe 60bd 53bd 6729 16bd
00000240: 1158 483e 184c 713e 5b87 ea3d ee3c 0f3e
00000250: 0d3d 0b3d 6b81 b43c b9ca 0c3b 9be0 5abb
00000260: 67f4 8bbd d507 ca3c a2ce cd3c 97ee 25bd
00000270: ef87 543d d31b c63c 0799 a2bc 5ae0 7bbb
00000280: 7acf fdbc 0784 9abd 9713 02be f51e cbbd
00000290: c14b abbd 2cb5 16bd ba0e b4bd e2a5 463c
000002a0: 87ae fdbb b17a 6dbb b8c0 e43d 1bdc 733d
000002b0: 6dcc b6bc 5161 64be 9c41 003d 4dfb bcbc
000002c0: 1a56 59be abca 233c d573 a6bd 97fd 00be
000002d0: 51ac 5cbe 0d19 08be cf6c 25bd 0bfd acbd
000002e0: c44f 54bd 7145 8ebc bc89 2bbd 8662 a3bc
000002f0: e0b2 f43c a508 b73d d4cf 033d bc2b 473b
00000300: 702d 5b3d 3363 333d d32b ed3c 0baa 6e3d
00000310: 4a1a 85bc a362 dcbb 54fc 0d3d e84c 13bd
00000320: e246 20bd 8819 9ebd ee14 ee3d 56dc 5f3e
00000330: 15e5 95bd f3c9 1b3e 0cf1 113b 72f8 563e
00000340: 0f77 4c3d ae84 f4bd c14e 143e bbf6 98bd
00000350: 5016 2bbe 778e 413d c4ee 22be f771 0dbe
00000360: 9abd 1cbe c454 0abe 467d 14be 6e7c 743c
00000370: 7667 b23c 4da8 2fbc b886 743c 9876 143d
00000380: a93c afbd 22e2 4b3e 27e2 b33d f217 973d
00000390: b3c6 f63d 8adb b13d 5259 9f3d 807d ed3d
000003a0: 6fea bb3d 41ed 8b3d 7b47 aebe 3e82 7bbe
000003b0: fda2 70be bf24 9fbe 43d6 5fbe b318 00be
000003c0: fae9 81be 7b52 08be 7054 f4bd a8c8 233e
000003d0: 2b60 003e bf4b fd3d c94a 873d 4ca7 f83d
000003e0: f38a 3d3e ddf5 87bc d036 bd3d 8846 a43d
000003f0: 368d 4ebe 1f83 7cbd 005f 91bd 4215 83bd

lstm_cell.conv.bias f4 [256]
0.1549801 0.23767558 0.01517277 0.055646952 -0.06725533 0.11540519 0.21328507 0.11114092
0.031467687 0.049917515 -0.016296819 0.06751487 0.2113279 0.34351498 -0.02514005 -0.07071777
0.02669024 -0.09156249 0.1644179 -0.02018243 0.044031806 0.21851933 0.24206907 0.22196169
0.1231016 0.19816469 0.0154396575 0.016583124 0.015180971 -0.04473197 -0.031238401 -0.068248145
0.09148271 0.07468038 -0.03945849 0.13055044 -0.035453036 -0.030384252 0.09868922 0.21723612
-0.0070316475 0.15149745 0.049323354 -0.078242786 0.048087172 -0.1404947 0.045506846 -0.01481332
-0.08807647 -0.12285362 0.006648542 0.22778185 0.12802412 0.14092435 0.06146391 -0.08592491
-0.061206307 -0.054138448 -0.17358136 0.1545614 -0.07162377 0.039347157 0.110535234 0.06709588
-0.105896205 0.021862742 -0.15997164 -0.03143367 -0.07835839 -0.051772602 -0.18872523 -0.29358155
-0.18530846 -0.22539099 -0.048008956 -0.12075096 -0.25066042 -0.17332633 0.013575878 -0.16556215
0.047266025 -0.10595257 -0.19202764 -0.073727354 -0.007993284 -0.2570576 -0.23801728 -0.14727609
-0.0814581 -0.10797819 -0.18230797 -0.13160603 -0.101134904 -0.16608244 -0.114556774 -0.14136736
-0.18210177 -0.07989879 -0.12331994 -0.13696052 -0.04347591 -0.114059776 -0.18669121 -0.025097834
-0.07234451 -0.25184965 -0.09603458 -0.05036989 -0.20979431 -0.08800829 -0.13918167 -0.04804985
-0.10231916 -0.065711096 -0.113739215 -0.19864407 -0.15541726 0.0142328385 -0.16535743 -0.105021544
-0.019642264 -0.108232796 -0.031259745 -0.14122665 -0.13360628 -0.08749144 -0.067218706 -0.07291462
-0.06584718 -0.0046906048 0.04697344 0.020811263 0.07385379 -0.06529184 -0.06684974 -0.042265415
-0.13306718 -0.02964271 0.022924446 0.036947392 -0.025287895 0.05060888 -0.065377176 -0.059728827
0.042830955 0.05019878 -0.030956509 0.018270262 0.06617636 -0.00857394 0.03160129 -0.0387625
0.007443584 -0.055674806 -0.041196756 -0.023757588 0.074100845 -0.07614006 0.040614683 -0.08695846
-0.006993546 -0.103635475 -0.01866707 -0.05454236 -0.038418733 0.063097075 0.024268962 -0.039040595
-0.049765136 0.041596465 -0.030650057 0.0046694404 -0.010543866 0.02780119 -0.02723645 0.018632336
0.035883494 -0.024376705 -0.02849109 -0.014993774 -0.063424826 -0.015447751 0.010619322 -0.0031276043
-0.0030200705 -0.036451247 -0.066067964 -0.16523428 0.05338259 -0.09035237 0.1624357 0.079813965
0.08904901 0.2615055 0.018704563 0.07671232 -0.10329766 0.08058422 0.085867606 0.14182132
0.027396126 0.07343298 -0.035942055 0.057263516 0.06569645 0.11900797 0.016170003 -0.026041891
0.042082626 -0.057804264 0.02614984 0.03552209 0.003419263 0.17200145 0.10338182 0.16328466
0.20969266 0.12660807 0.044053037 0.043232482 0.018444324 -0.0019606692 0.0023915693 -0.0018509491
0.022240931 0.061731305 0.032583173 0.11897892 -0.041591343 0.016773725 0.1307974 0.24184199
-0.012827267 0.27055308 0.06764037 -0.08877058 0.024207404 -0.15886135 0.028839294 -0.052024238
-0.12843491 -0.0733518 -0.02248985 0.1979336 0.11261653 0.23561476 0.10376099 -0.06737016
-0.058415998 -0.032784034 -0.13139425 0.18518634 -0.052444622 0.012407649 0.026549874 0.039835196
00000000: 1ab3 1e3e 3a61 733e 3697 783c 0fee 633d
00000010: 2abd 89bd 8e59 ec3d 6767 5a3e da9d e33d
00000020: 43e4 003d 4f76 4c3d e880 85bc 3c45 8a3d
00000030: 5766 583e 32e1 af3e 82f2 cdbc 7ad4 90bd
00000040: 7da5 da3c 1d85 bbbd 2a5d 283e a055 a5bc
00000050: b25a 343d 88c3 5f3e f4e0 773e ed49 633e
00000060: b11c fc3d afeb 4a3e 9ef6 7c3c 55d9 873c
00000070: 9bb9 783c df38 37bd ade7 ffbc afc5 8bbd
00000080: 495b bb3d 07f2 983d 3a9f 21bd 04af 053e
00000090: 3437 11bd 65e8 f8bc 931d ca3d 2573 5e3e
000000a0: bc69 e6bb 2622 1b3e 4907 4a3d c13d a0bd
000000b0: 0ef7 443d d8dd 0fbe 6365 3a3d 91b3 72bc
000000c0: 7061 b4bd ae9a fbbd 03dc d93b a53f 693e
000000d0: c118 033e 794e 103e 95c1 7b3d 66f9 afbd
000000e0: 77b3 7abd 47c0 5dbd 50bf 31be 5845 1e3e
000000f0: 7caf 92bd 7c2a 213d 4c60 e23d 9169 893d
00000100: 1ce0 d8bd 7e19 b33c 9bcf 23be 98c0 00bd
00000110: 5d7a a0bd 820f 54bd 3041 41be 5250 96be
00000120: 80c1 3dbe e5cc 66be 0aa5 44bd 484c f7bd
00000130: 9056 80be 757c 31be 5c6d 5e3c 2089 29be
00000140: 059a 413d a9fd d8bd e5a2 44be 5efe 96bd
00000150: 43f6 02bc 0e9d 83be cdba 73be 8bcf 16be
00000160: 81d3 a6bd ab23 ddbd f1ae 3abe bbc3 06be
00000170: d11f cfbd 8411 2abe be9c eabd 9bc2 10be
00000180: e378 3abe faa1 a3bd 2a8f fcbd 613f 0cbe
00000190: cc13 32bd 2c98 e9bd fb2b 3fbe f999 cdbc
000001a0: 5c29 94bd 70f2 80be c7ad c4bd a850 4ebd
000001b0: 52d4 56be b13d b4bd a485 0ebe ebcf 44bd
000001c0: b58c d1bd 8a93 86bd 1bf0 e8bd 5a69 4bbe
000001d0: b425 1fbe da30 693c 7553 29be 8915 d7bd
000001e0: d0e8 a0bc 28a9 ddbd 380a 00bd b89d 10be
000001f0: 16d0 08be b62e b3bd f6a9 89bd 4354 95bd
00000200: e3da 86bd a5b3 99bb 3967 403d 627c aa3c
00000210: a840 973d bab7 85bd 84e8 88bd 801e 2dbd
00000220: c342 08be 45d5 f2bc 0ccc bb3c 2656 173d
00000230: 8f28 cfbc 424b 4f3d 78e4 85bd 37a6 74bd
00000240: 836f 2f3d 3c9d 4d3d 8198 fdbc 84ab 953c
00000250: 7987 873d b679 0cbc 5b70 013d 6dc5 1ebd
00000260: 4fe9 f33b 440b 64bd eebd 28bd 469f c2bc
00000270: 2fc2 973d 52ef 9bbd 955b 263d 4717 b2bd
00000280: 1e2a e5bb d63e d4bd afeb 98bc cf67 5fbd
00000290: f65c 1dbd 0a39 813d b4cf c63c 08e9 1fbd
000002a0: 87d6 4bbd 0e61 2a3d d415 fbbc 1b02 993b
000002b0: 2ec0 2cbc 52bf e33c fa1e dfbc d7a2 983c
000002c0: 92fa 123d a8b1 c7bc 2566 e9bc 72a8 75bc
000002d0: e0e4 81bd 9018 7dbc aafc 2d3c 7ef8 4cbb
000002e0: 60ec 45bb e74d 15bd a44e 87bd 2d33 29be
000002f0: b4a7 5a3d aa0a b9bd 8b55 263e 8175 a33d
00000300: 545f b63d 0de4 853e 503a 993c 591b 9d3d
00000310: b98d d3bd 5709 a53d 5bdb af3d 9c39 113e
00000320: d76d e03c 0864 963d fa37 13bd 268d 6a3d
00000330: dc8b 863d 73ba f33d f476 843c ce55 d5bc
00000340: d55e 2c3d 2ac4 6cbd 3038 d63c 9c7f 113d
00000350: b715 603b 2621 303e d9b9 d33d 1834 273e
00000360: acb9 563e 8ca5 013e f570 343d 8b14 313d
00000370: 8d18 973c 927e 00bb e0bb 1c3b 8c9b f2ba
00000380: 9d32 b63c f7d9 7c3d ef75 053d 38ab f33d
00000390: af5b 2abd 0d69 893c c1ef 053e 6da5 773e
000003a0: 7529 52bc ef85 8a3e 0987 8a3d 5acd b5bd
000003b0: 9b4e c63c 8dac 22be 6240 ec3c 5e17 55bd
000003c0: 7184 03be 7839 96bd a23c b8bc 1baf 4a3e
000003d0: 7fa3 e63d ff44 713e a480 d43d 5ef9 89bd
000003e0: 9d45 6fbd 8d48 06bd 378c 06be 7da1 3d3e
000003f0: 2cd0 56bd 7449 4b3c 1f7f d93c 3b2a 233d

conv_out.weight f4 [1, 64, 1, 1]
0.15780579 -0.026415184 -0.2076882 0.102714 0.15812847 0.42367476 -0.39470062 -0.7005704
0.23032959 -0.20410617 -0.13901867 0.06684862 0.4057825 -0.57231545 0.068865344 -0.14844842
-0.06931965 0.17899176 0.19792977 0.12636805 -0.15347226 1.1886388 0.32070363 0.03455559
-0.1486558 0.2066619 0.38888547 0.18065529 -0.14471367 0.05892938 -0.19234501 -0.12646571
-0.14865772 0.15264833 0.13672113 -0.088698976 -0.071375914 -0.036619313 -0.20699103 0.4103142
0.011916691 0.32885906 0.15671788 0.11112353 -0.19388026 -0.1403056 0.15594615 -0.013226662
0.17259301 0.13615243 -0.038455978 0.2237269 0.25794542 -0.3185661 0.3688166 -0.10936114
0.12129274 0.14422472 0.16372856 -0.024891362 -0.17145514 0.03161977 -0.12362225 -0.06310319
00000000: d797 213e a864 d8bc 37ac 54be b85b d23d
00000010: 6eec 213e e6eb d83e 3316 cabe 9558 33bf
00000020: 85db 6b3e 3501 51be e95a 0ebe eee7 883d
00000030: b9c2 cf3e 4483 12bf 4609 8d3d dd02 18be
00000040: 76f7 8dbd 9e49 373e 1aae 4a3e a066 013e
00000050: d527 1dbe 5125 983f 4433 a43e 2a8a 0d3d
00000060: 3a39 18be 2d9f 533e ff1b c73e b3fd 383e
00000070: d22f 14be ef5f 713d 17f6 44be 3a80 01be
00000080: bb39 18be d84f 1c3e a000 0c3e cfa7 b5bd
00000090: 892d 92bd 22fe 15bd 75f5 53be b414 d23e
000000a0: 3a3e 433c 3760 a83e a77a 203e bc94 e33d
000000b0: 8c88 46be 45ac 0fbe 59b0 1f3e a4b4 58bc
000000c0: 39bc 303e 8b6b 0b3e 0484 1dbd aa18 653e
000000d0: 6c11 843e 191b a3be 88d5 bc3e bcf8 dfbd
000000e0: 5468 f83d a5af 133e 76a8 273e f8e8 cbbc
000000f0: f091 2fbe bb83 013d aa2d fdbd 3f3c 81bd
